models/Mnist/server.pt (torch, 33014 bytes, 2 tensors)

weight f4 [10, 784]
-0.00024673837 0.017680287 -0.027126662 -0.024255728 -0.012694163 0.008838021 -0.0006530104 0.026132718
-0.0029249229 0.008721292 -0.0099601485 -0.006478674 -0.030719046 -0.020826207 -0.012876012 0.0019118262
0.013029861 0.019776117 -0.022344304 -0.014352407 0.011971109 0.027368367 -0.006782978 0.024663117
-0.00531229 0.003487531 0.029845005 -0.030576194 -0.020749165 -0.008344278 -0.012847414 0.02847603
-0.02066357 -0.014091594 -0.021416217 -0.028781148 -0.014003569 0.034984354 0.016218085 0.011000006
0.001296018 -0.01171607 0.012416495 -0.017687026 0.12774137 0.070308805 0.01489982 0.020047009
-0.01201833 0.0007098948 0.010804799 0.008976307 0.013080768 0.0044524507 0.022098232 -0.019406337
0.006141742 -0.025553579 -0.022134997 -0.01609371 0.015441146 0.015191737 -0.016087329 0.05123394
0.0075102486 -0.032303087 -0.0043849815 0.0035631955 0.003252847 0.018562943 -0.052602373 -0.054344866
-0.016990103 0.005027037 0.021264654 0.030857854 0.016053073 -0.019493638 0.007792989 -0.020141523
-0.028232068 0.03064645 0.025060106 -0.032877475 0.0061688535 -0.005552264 -0.0044901585 -0.013550666
0.041099068 -0.026523396 0.008106932 -0.048372865 -0.07468108 -0.04474158 -0.039085954 -0.0010303685
0.010966328 -0.0030299502 -0.0031290413 0.013928995 0.023484966 0.01731574 -0.06844443 -0.067750946
-0.059992023 -0.059212495 -0.063130274 -0.025501726 -0.00087801134 0.006722207 -0.012369219 0.01955645
-0.020056948 0.030612148 0.023936987 -0.009081435 -0.009950698 -0.009457552 0.00073501887 0.010322601
0.040424846 0.054235034 0.03210102 0.070689514 -0.016341146 0.042590506 0.013989575 0.03908463
-0.012303339 -0.006810329 0.01953034 -0.0054392195 -0.051622666 -0.029555844 0.047982793 0.025103088
0.06369719 -0.016645078 0.008430344 0.02195875 0.03122142 0.021634147 0.033287648 0.010130646
-0.059148833 -0.058398016 0.04416032 -0.00860814 0.038860977 0.0031119096 0.0012287624 -0.02295754
0.0076461867 0.07535784 0.08147218 0.034016408 0.08048841 0.02057547 0.051812414 0.05070228
0.032695927 0.051444188 0.0023229683 -0.039616875 0.02716605 -0.062488973 -0.042066786 0.013801038
-0.029665515 -0.0012847495 0.017828759 -0.0074428567 -0.006219181 0.018667493 -0.0078487545 0.046074376
0.012793478 -0.04057606 0.023643766 -0.02162185 0.019215055 0.020837035 0.053730287 0.040148277
0.10488593 0.06671651 0.051000893 0.04514797 -0.012110183 0.05128032 0.05903324 0.020426944
-0.020669105 -0.047954924 -0.03903074 -0.020351255 -0.018497922 0.013224425 -0.018767169 0.013419797
-0.013759689 -0.000821466 -0.00296081 -0.0013518677 -0.06006767 0.0075649656 -0.011684556 -0.0018973754
0.0014769491 0.01484599 0.05369505 0.043029048 0.05597489 0.067066245 0.05837676 0.040292323
0.031557478 0.042133905 0.022687837 -0.0025930097 0.002758581 -0.024612816 -0.018856034 -0.014389245
-0.02768804 0.020773206 -0.01346253 -0.00018209974 -0.03184076 -0.026870098 0.021147477 0.026586689
-0.033134345 -0.026120387 -0.0032481763 -0.033873577 0.030095415 0.0048125605 0.07212673 0.097466774
0.075961754 0.0791135 0.0933486 0.045388844 0.0039268564 0.0090727005 0.06373222 0.009213277
0.05578336 -0.026693732 -0.024708359 -0.01576583 0.028554734 -0.004778306 0.007919518 -0.00031238724
00000000: aa5c 81b9 40d6 903c bc38 debc f3b3 c6bc
00000010: 2efb 4fbc 59cd 103c c92e 2bba 4814 d63c
00000020: 10b0 3fbb c0e3 0e3c e42f 23bc 0e4b d4bb
00000030: 82a6 fbbc b99b aabc e9f5 52bc 3e96 fa3a
00000040: 337b 553c 8601 a23c 670b b7bc 5c26 6bbc
00000050: 7822 443c a033 e03c be43 debb 4e0a ca3c
00000060: b812 aebb 108f 643b 837d f43c ed7a fabc
00000070: 27fa a9bc 70b6 08bc f67d 52bc 9046 e93c
00000080: a646 a9bc 6ee0 66bc 1071 afbc 71c6 ebbc
00000090: 3a6f 65bc c14b 0f3d cadb 843c 5f39 343c
000000a0: 26df a93a c2f4 3fbc 8e6e 4b3c 62e4 90bc
000000b0: a2ce 023e 10fe 8f3d 601e 743c a039 a43c
000000c0: 88e8 44bc 3c18 3a3a 9d06 313c 5c11 133c
000000d0: b850 563c dde5 913b 5a07 b53c 0afa 9ebc
000000e0: ab40 c93b bd55 d1bc 7454 b5bc f5d6 83bc
000000f0: dcfc 7c3c c3e6 783c 93c9 83bc aeda 513d
00000100: 8818 f63b 3e50 04bd e4af 8fbb 8084 693b
00000110: b72d 553b 5011 983c 9675 57bd b998 5ebd
00000120: d42e 8bbc d8b9 a43b 3633 ae3c 9cc9 fc3c
00000130: bc81 833c 1fb1 9fbc 545c ff3b d6ff a4bc
00000140: f046 e7bc 440e fb3c da4a cd3c 88aa 06bd
00000150: 1824 ca3b c4ef b5bb 2e22 93bb 9d03 5ebc
00000160: 7f57 283d 9847 d9bc f0d2 043c a022 46bd
00000170: 65f2 98bd f242 37bd 9818 20bd 6e0d 87ba
00000180: 1dac 333c 2192 46bb 9a10 4dbb 7036 643c
00000190: 8b63 c03c bdd9 8d3c 982c 8cbd 02c1 8abd
000001a0: 32ba 75bd cd88 72bd 724a 81bd ffe8 d0bc
000001b0: 582a 66ba f645 dc3b 44a8 4abc d934 a03c
000001c0: 784e a4bc 54c6 fa3c 8017 c43c 4dca 14bc
000001d0: 4108 23bc d9f3 1abc 48ae 403a 2020 293c
000001e0: 8694 253d 8e25 5e3d 5c7c 033d aac5 903d
000001f0: dedd 85bc 6273 2e3d 8834 653c 3417 203d
00000200: f293 49bc 2e29 dfbb 17fe 9f3c 7b3b b2bb
00000210: 4a72 53bd 191f f2bc 9b89 443d fea4 cd3c
00000220: ac73 823d 425b 88bc 6d1f 0a3c d6e2 b33c
00000230: 10c4 ff3c 183a b13c a158 083d 02fb 253c
00000240: 0c46 72bd c232 6fbd 74e1 343d 2809 0dbc
00000250: b02c 1f3d 2ef1 4b3b 6d0e a13a 7311 bcbc
00000260: dd8c fa3b 3655 9a3d e3da a63d ca54 0b3d
00000270: 1cd7 a43d e38d a83c 4139 543d 32ad 4f3d
00000280: 2aec 053d 24b7 523d f13c 183b 4e45 22bd
00000290: 568b de3c 70f4 7fbd 394e 2cbd c01d 623c
000002a0: 1805 f3bc 0a65 a8ba 9e0d 923c 35e3 f3bb
000002b0: 46ca cbbb 92ec 983c 1098 00bc 7cb8 3c3d
000002c0: bc9b 513c 1533 26bd 92b0 c13c 4e20 b1bc
000002d0: e468 9d3c 6eb2 aa3c 4a14 5c3d 8572 243d
000002e0: 6fce d63d aaa2 883d 50e6 503d 14ed 383d
000002f0: ca69 46bc 500b 523d d7cc 713d 6856 a73c
00000300: 4152 a9bc 626c 44bd b2de 1fbd adb7 a6bc
00000310: f488 97bc 42ab 583c 9bbd 99bc b5de 5b3c
00000320: 5270 61bc a657 57ba 260a 42bb 2731 b1ba
00000330: 8409 76bd 88e3 f73b 9470 3fbc 5bb1 f8ba
00000340: 3096 c13a 983c 733c 57ef 5b3d 3a3f 303d
00000350: ed45 653d 075a 893d 781c 6f3d 9009 253d
00000360: 6a42 013d 9a94 2c3d d8db b93c 7cef 29bb
00000370: 4fc9 343b d1a0 c9bc f877 9abc dec0 6bbc
00000380: 07d2 e2bc 922c aa3c f291 5cbc 07f2 3eb9
00000390: 756b 02bd ae1e dcbc 793d ad3c 54cc d93c
000003a0: e1b7 07bd 6cfa d5bc 5bdf 54bb 05bf 0abd
000003b0: a98a f63c afb2 9d3b 2eb7 933d a99c c73d
000003c0: d691 9b3d 4206 a23d 8d2d bf3d a7e9 393d
000003d0: dcac 803b aaa5 143c 0a86 823d 49f3 163c
000003e0: 187d 643d d0ac dabc 2f69 cabc 5827 81bc
000003f0: 9eeb e93c 5693 9cbb dec0 013c e8c7 a3b9

bias f4 [10]
-0.19661961 -0.27073961 0.11525914 0.09726051 -0.24513623 0.09552444 -0.09786445 -0.17701203
0.58517706 0.12320908
00000000: a756 49be 629e 8abe fc0c ec3d 8530 c73d
00000010: fe04 7bbe 51a2 c33d 286d c8bd a442 35be
00000020: 2ace 153f 0b55 fc3d
