models/Cifar10/server.pt (torch, 252697 bytes, 10 tensors)

weight f4 [6, 3, 5, 5]
000000 66 83 4a bd b3 b6 dd 3c d5 99 a0 bc 72 f8 80 bd
       -0.049441718 0.027064657 -0.019604603 -0.06297387
000010 c2 cf e9 bd a4 0f 7c bd 6e 76 c7 3d 16 7e f1 bd
       -0.1141658 -0.061538354 0.097393855 -0.11791627
000020 06 89 2f bd 4c 09 f8 3c 56 2f af 3d 82 ec db 3c
       -0.042855285 0.03027787 0.085539505 0.026846174
000030 dd 8c 23 bd 68 58 d0 bd da 7e 90 3c 74 1f a8 bc
       -0.03992926 -0.10173112 0.017638613 -0.02052281
000040 45 7c da 3d de bc bf 3d 9c 7d ef bd 96 57 d7 bd
       0.10668234 0.093621954 -0.1169388 -0.105147526
000050 b8 61 a4 3d 83 43 7e 3d 14 e5 a3 bd 8e 7b 03 be
       0.08026451 0.062076103 -0.080026776 -0.12840101
000060 fe 4e fd bd 28 30 08 3e 3e fa 4b 3d c7 74 01 3e
       -0.12368582 0.1329962 0.049799196 0.12642203
000070 fc 70 06 3d 5e 5f 0a 3e 87 59 32 3e b6 32 ee 3d
       0.032822594 0.13512942 0.17416964 0.11630766
000080 6f 1a 70 3c c7 0c 22 3e c2 c2 96 3d c8 ae df 3d
       0.01465474 0.15825187 0.07361366 0.10922009
000090 93 f3 08 3e ac 8d 34 3e 83 1c 07 3e cc 03 fd 3d
       0.13374166 0.17632169 0.1319447 0.1235424
0000a0 9c a0 ab bc 9c ab 43 3e bc 79 f3 3d 77 7b a7 3d
       -0.020950608 0.19108433 0.11888453 0.08177846
0000b0 33 4c 04 3e 3d 34 40 3e a9 a2 5a 3e 40 0d b8 3d
       0.12919693 0.18769927 0.21351112 0.08986902
0000c0 3a 8f dc 3d 15 9a af 3d 55 d9 89 3c ab 7c f1 bd
       0.10769506 0.08574311 0.016827265 -0.11791357
0000d0 f2 21 8a bc 67 2d c3 bd c7 a2 c1 bb 36 cd 92 3c
       -0.01686189 -0.09530144 -0.005909297 0.017920118
0000e0 b6 a9 3e bd 26 eb 2a be ce bd 91 bd eb 15 bd bd
       -0.046548568 -0.16691265 -0.071162805 -0.09232696
0000f0 8c aa 29 bd 0a 2f 04 be 11 af 04 be ef eb e3 bd
       -0.04142241 -0.12908569 -0.12957408 -0.11128985
000100 b5 c7 3d be 77 6a 52 bc 1f bf 8f 3a 48 5d 0f bd
       -0.18533213 -0.012842766 0.0010966993 -0.03500107
000110 74 c4 33 be fb 76 4f be a7 8e 98 bd f2 58 10 be
       -0.1755541 -0.20260231 -0.07449084 -0.1409643
000120 ae 45 15 bd a8 df 05 be 9f f4 55 be 7c 3a 80 3d
       -0.036443405 -0.130736 -0.20894097 0.06261155
000130 9e 63 97 3d 76 6c 53 3d fa ba 40 3d f5 a5 d9 3d
       0.07392047 0.05161711 0.047053315 0.10627357
000140 36 c2 32 bc 74 28 a2 3d cc e2 df 3d 08 9a 4a 3c
       -0.010910561 0.07917872 0.1093193 0.0123658255
000150 86 cd 9a 3d 48 c9 8b 37 9f 3d 11 3e 98 ac 13 bd
       0.07558732 1.666382e-05 0.14183663 -0.03605327
000160 10 ac ad 3c 48 dc de 3d 9a 32 11 3e 3c 30 ca 3c
       0.02120021 0.10881859 0.14179459 0.024681203
000170 83 49 f1 3d a6 44 0f 3e 85 f8 3a 3d 6c 42 05 3e
       0.117815994 0.13991031 0.045647163 0.13013619
000180 67 61 51 3d af f6 0f 3e dc c9 80 3d 34 9a 3b 3d
       0.05111828 0.14058946 0.062885016 0.045801356
000190 a0 80 28 3d e0 e5 a0 3d fd fa a0 3d 3e 7f 16 3d
       0.04113829 0.07856345 0.07860372 0.03674244
0001a0 98 2c fd bd 17 7f 94 3d d8 f6 c1 3c 28 2d e9 3d
       -0.12362021 0.07250803 0.023677275 0.11385566
0001b0 9f aa 63 3b e2 8f c6 bd 10 7f b8 3d 50 69 18 bd
       0.003473915 -0.09695412 0.0900861 -0.03720981
0001c0 ab 9b 90 bd e7 c1 01 bd 0e 34 16 bd bc 55 1f 3c
       -0.07060941 -0.03167906 -0.036670737 0.0097250305
0001d0 06 bd fa bc fe 4d 92 3b d7 02 02 bd 31 2c c5 bd
       -0.030607712 0.004464864 -0.03174099 -0.096275695
0001e0 c0 0f 9e bd 89 83 ba bc d5 25 57 39 cd 7d 68 3d
       -0.07717848 -0.022767799 0.00020518091 0.056760598
0001f0 cc b9 0d 3d c8 eb 00 bd f7 5b 53 bd a4 30 db 3c
       0.034601018 -0.03147486 -0.051601376 0.026756592
000200 3a d2 12 be 46 5c 24 be 21 4c d6 bc 6c 91 40 bd
       -0.14338008 -0.16050825 -0.026159348 -0.047013685
000210 67 1b 86 bd 0b 4e 8f 3c 0b fc e3 bd 7c f0 a4 bc
       -0.06548195 0.017493268 -0.11132058 -0.020134203
000220 12 05 ab bd 09 c3 3c bd f4 92 84 3c ff 95 17 bd
       -0.083505765 -0.046084438 0.016183354 -0.03700828
000230 17 d2 ac ba 7a bd 2b be b8 d1 f1 bc 4f 63 38 3d
       -0.001318517 -0.16771498 -0.029518947 0.045016583
000240 3e 92 2f bd 83 44 52 bd bc d8 06 be 71 94 08 be
       -0.042864077 -0.05133487 -0.13168615 -0.13337876
000250 b3 95 92 bd 4f 22 7a 3c 5b 95 80 bd a8 86 60 bd
       -0.07157459 0.015266969 -0.06278487 -0.05481592
000260 1c 78 3d bc cd 19 bd 3d a6 11 ab 3d d0 a8 e4 bd
       -0.011564281 0.09233437 0.083529755 -0.11165011
000270 e4 b3 98 bd cd 03 1d bd 05 da 00 3e 63 bb 07 3e
       -0.074561864 -0.038333703 0.12583168 0.13255076
000280 3e 37 bc bd 34 74 da 3c 56 7c f7 bb 16 ae df bb
       -0.09190224 0.026666738 -0.007552664 -0.0068261726
000290 fb fe d7 3c ac fc 0c be 3e bb 39 3d 7c 12 e2 bb
       0.026366701 -0.13768262 0.045344584 -0.006899176
0002a0 0a 31 42 3d d7 97 2f 3d 4b ad 41 bc 5c 03 fe bd
       0.04741005 0.042869415 -0.011821101 -0.124029845
0002b0 e4 05 cc 3d d8 18 81 3d f0 70 71 bb f7 ad 0e be
       0.09962061 0.06303567 -0.0036840998 -0.1393355
0002c0 0c 7c 18 bd c9 d5 98 3d 01 2f 2d 3d 06 1d 0d bc
       -0.037227675 0.07462651 0.042281155 -0.008612877
0002d0 d2 72 0b bd 4c 72 36 bd 68 94 85 3c 74 78 3d bd
       -0.034045048 -0.044542596 0.016306117 -0.04625745
0002e0 8f 8a 14 3d 84 24 a0 bb 70 bc 1c be 3a 97 d6 3a
       0.036264952 -0.0048871655 -0.15306258 0.0016371973
0002f0 e5 9d f0 3d dc 62 20 3e e4 08 fa bc 4f 1a 6f 3d
       0.11748866 0.15662712 -0.030521818 0.0583747
000300 47 ab a3 bd a4 ee c9 3d 3c 33 89 3d b6 28 de bc
       -0.07991653 0.0985997 0.06699225 -0.027119022
000310 25 36 36 3d 4c d4 16 3d b1 9c e7 38 34 d7 4d 3d
       0.04448523 0.036823556 0.000110441244 0.05025406
000320 7c e9 9f bd e3 a9 8b 3d ba 8c 20 3c f5 ca 8f bd
       -0.078082055 0.06819513 0.009799177 -0.07021133
000330 b4 0b 16 bd a6 9c 11 be 74 90 85 bd 9c c1 da 3d
       -0.036632255 -0.14219913 -0.06521693 0.10681459
000340 8e 43 ca 3c db 5e 51 bd 7d 43 04 3d 52 da e6 bd
       0.024690416 -0.05111585 0.032290924 -0.1127211
000350 e1 04 74 bb bc 32 14 3e e6 0b ff 3d 6a c2 88 bd
       -0.0037234353 0.14472479 0.12453441 -0.066777065
000360 70 4c de bd e2 b2 9e bd 88 ee 18 bd a1 44 e1 3c
       -0.10854423 -0.07748963 -0.037336856 0.027498545
000370 ca 84 81 bd 0f f0 69 bd 34 e7 9f 3b 68 b0 bf 3d
       -0.06324156 -0.057113703 0.0048798565 0.09359819
000380 55 58 0d 3e f1 8d 9c bd ba c7 08 bd 44 53 c7 bd
       0.13803227 -0.07644261 -0.0333936 -0.097326785
000390 44 8b c2 bd 2e a0 da bb b1 ab 8c bc ef 96 83 3d
       -0.09499219 -0.006671927 -0.017171713 0.06425273
0003a0 f7 85 ae 3d 9a ad b2 3a f4 48 c1 3b d2 83 57 bc
       0.085216455 0.001363206 0.0058985893 -0.013153987
0003b0 88 0e a6 bd fc 5a c4 3d 40 81 3e 3d d2 73 49 3d
       -0.0810824 0.095876664 0.04650998 0.04918272
0003c0 ba 5c 43 bb 43 08 8b bc a2 f0 90 3d b4 4e 47 3d
       -0.0029809908 -0.016971713 0.07077147 0.04865904
0003d0 0c 58 0c be b8 53 24 be bc fa 9b bd 7c a4 83 bd
       -0.13705462 -0.16047561 -0.07616183 -0.06427857
0003e0 ef 22 88 bd 87 13 1c be 7a 65 89 bd a2 54 12 be
       -0.06647288 -0.15241824 -0.06708808 -0.14290097
0003f0 8a 2b 25 bd 44 de d2 bc c4 8b 5e bd c9 a2 a7 bd
       -0.040324725 -0.02574075 -0.05433251 -0.08185346

bias f4 [6]
000000 c5 22 95 3e c1 5a 0b 3e a9 11 7f 3b 3e 36 dd 3e
       0.2912809 0.13608839 0.0038920438 0.43205446
000010 10 68 58 3e 11 57 33 3e
       0.21133447 0.17513682

weight f4 [16, 6, 5, 5]
000000 f7 a1 31 bc c1 46 1a bd 0a 0f c8 bd 96 d3 bd bd
       -0.010841838 -0.037665132 -0.097684935 -0.092688724
000010 a5 cb ac bd 3c 0a c1 bd a5 f1 cb bd fa 88 d3 3c
       -0.084372796 -0.0942578 -0.099581994 0.025822151
000020 b9 15 b4 bd 5a aa dc bd 6e 48 af bd ec e2 f5 bc
       -0.08793206 -0.107746795 -0.08558737 -0.030015431
000030 80 0f 4f bd b7 e8 de 3c fe 23 cf 3b 7c a8 af 3c
       -0.05055189 0.027210576 0.0063214293 0.021442644
000040 cc 97 68 3c 34 c2 a5 bc 7a 99 46 bd e0 ea cb 3c
       0.014196347 -0.020234205 -0.04848621 0.02489227
000050 00 74 76 bd b4 d9 99 bd 42 51 89 bc 1a 28 23 bd
       -0.06016922 -0.07512227 -0.01676238 -0.039833166
000060 d7 c0 9b bd 7b 88 c3 bd da 8d 8a bd 84 39 8e bd
       -0.07605141 -0.09547516 -0.06765337 -0.06944564
000070 85 2e 38 bd d2 90 bc 3c 7c 57 29 bc 5f a9 c1 bc
       -0.04496624 0.023018274 -0.010335799 -0.023640333
000080 36 43 b7 bd 47 f6 7a bc 3e 92 b7 bc 7a 57 aa bd
       -0.08948366 -0.015317506 -0.0224086 -0.08317466
000090 c2 bb 2f 3c eb d1 2f 3b be 74 b4 bb 84 b0 b3 bd
       0.010725917 0.0026828002 -0.005507081 -0.08773902
0000a0 7b e0 a0 bd 9c fb b1 3a bf 06 11 bd fc ad a9 bd
       -0.07855316 0.0013579014 -0.035406824 -0.08285138
0000b0 6a f4 bc bd 7d bd 28 bc c9 80 b6 bd a4 2c 49 bd
       -0.09226306 -0.010299084 -0.089112826 -0.04911484
0000c0 1d 5e 89 bd d5 31 74 bd f3 e9 c1 3c 9a 85 b2 bc
       -0.06707404 -0.059617836 0.023671126 -0.021792222
0000d0 9e 17 b6 3b 9c 82 b1 bc cc 90 69 bc 5f b1 04 bd
       0.0055570146 -0.021668725 -0.014255714 -0.032395717
0000e0 f3 31 11 bd 9f d9 00 3b de 34 83 3c 86 4f 66 3c
       -0.035448026 0.0019660962 0.01601642 0.014057046
0000f0 fa 87 1f bc 6f 25 9c bd 15 e6 77 3c 73 4e d5 bd
       -0.009737009 -0.076243274 0.015130539 -0.104153536
000100 87 cd 68 bd 45 01 fd 3c b2 ec 5b bc a0 ec 15 bd
       -0.05683663 0.030884394 -0.013423132 -0.036602616
000110 6c 2c ba bb e8 b4 0d bd 91 56 bc bc 50 d1 4b bd
       -0.005681565 -0.034596354 -0.022990497 -0.049760163
000120 b8 6e 31 bc ee 28 e9 3c 14 bf 79 3b 61 b4 d7 bc
       -0.01082962 0.0284619 0.0038108276 -0.026331129
000130 dd ca fc bb 5e a6 1e bd 5c e7 5b 3d 00 ce d0 bb
       -0.007714613 -0.03873288 0.05368744 -0.0063722134
000140 36 76 12 3d 2f a2 f7 3c c4 86 a1 bd f2 cc 76 bd
       0.035757266 0.030228702 -0.07887033 -0.060254045
000150 67 c6 46 bc 33 5d c1 3d 99 37 18 3d c6 84 e1 3d
       -0.012132264 0.094416045 0.037162397 0.11011653
000160 92 66 ef 3d de f4 94 3c e2 98 d3 3c e0 65 cb 39
       0.116894856 0.018183168 0.025829736 0.0003879508
000170 d0 16 50 3d 90 8f de 3d 50 55 c7 3d 03 a7 94 3c
       0.050803006 0.10867226 0.09733069 0.018146044
000180 c4 2d 91 3d f8 ef a5 3c 19 b2 00 3d 3c 7b 4f bd
       0.07088807 0.020256028 0.031419847 -0.050654635
000190 d2 8d fa bc 00 05 2f bd be 9e a1 bc 48 15 8c bd
       -0.030585203 -0.042729378 -0.019729014 -0.068399966
0001a0 33 62 21 3d 08 ae 99 bc e8 46 47 3d ba 98 cb 3d
       0.03940029 -0.018759742 0.048651606 0.0994124
0001b0 86 d1 c8 3d a1 a0 a9 3d d0 4c 96 bc 61 6e 40 bd
       0.098055884 0.08282591 -0.018347174 -0.046980266
0001c0 06 5c ea bd 4e eb 91 bd 5d ee c0 bd 00 4a 33 bc
       -0.11443333 -0.07124959 -0.09420464 -0.010942936
0001d0 be c3 b8 bd d2 6d 34 bd 99 e1 fc bb d0 46 ac bd
       -0.0902171 -0.044050045 -0.007717323 -0.08411944
0001e0 32 61 9e bd 27 e3 fc 3c b9 1d 93 bd 60 f3 9f bc
       -0.07733382 0.030870033 -0.071834035 -0.01952523
0001f0 4d d3 39 3d 72 23 e7 3d ce 7e dd 3d 82 3d c1 3d
       0.045367528 0.112860575 0.10815202 0.0943556
000200 b8 29 a0 3d 7b 47 d3 3d 77 3d 9f 3d a9 a8 a8 3d
       0.07820457 0.10316368 0.07775395 0.08235294
000210 99 cc 55 3d 1c 92 89 bc 94 7a 3e 3d 44 a9 dc 3d
       0.052197073 -0.016793303 0.04650362 0.10774472
000220 40 25 79 3d b4 53 6c 3c 40 12 34 3d 61 b0 8d 3d
       0.06082654 0.014424253 0.043962717 0.06918407
000230 09 02 32 3e dc 51 2b 3e 74 56 2b 3e f6 fb 91 3d
       0.17383589 0.16730446 0.16732198 0.07128136
000240 0b ac 29 3e 6f f5 43 3d e8 e8 f1 3d e3 a0 2c 3e
       0.16569535 0.047841486 0.118120015 0.16858248
000250 da 7d 48 3e b4 88 39 3e 4b ea c8 bd b4 d9 5e bd
       0.19579259 0.18118554 -0.09810313 -0.054406837
000260 6e 56 3e bc 2e c3 62 bd 0a 09 7a bd 7e 04 d0 39
       -0.011617286 -0.05536192 -0.061043777 0.00039676199
000270 1e ed 1d bd dd ce 91 bd 4d 90 78 3d f0 19 86 bd
       -0.03855621 -0.07119534 0.06068449 -0.06547916
000280 6e e0 b8 bd b1 95 eb bd 9d dd a0 bd 1e 8a 1d 3d
       -0.090271816 -0.11503161 -0.078547694 0.038461797
000290 67 bd a7 bd a8 05 61 bd 64 b6 27 bd df 9c c9 bd
       -0.081904225 -0.054937035 -0.040945426 -0.09844374
0002a0 7d 65 21 bd 69 2e a5 bc 5e 9a 6a bd 83 e7 98 bd
       -0.039403427 -0.020163732 -0.057276122 -0.07466032
0002b0 fe 1a 2f bd 87 b9 84 3a 5a c3 7e bc f6 3a e1 bc
       -0.04275035 0.0010126092 -0.015549505 -0.027493935
0002c0 43 72 17 3d 56 b1 98 3d 72 5a d6 3d bf 5f e6 3d
       0.036974203 0.07455699 0.1046647 0.11248731
0002d0 1a a5 8a 3d 38 f3 99 bc c3 6e b0 3d e6 12 da ba
       0.06769772 -0.018792734 0.08614876 -0.0016637712
0002e0 be ac c5 3d ed 4e 33 3d f8 81 64 bc 17 f9 49 bd
       0.096520886 0.04377644 -0.013947003 -0.049309816
0002f0 cc 0d 19 bb 5b 37 64 3d 03 11 2a 3c 8b 3c 7d bc
       -0.002335417 0.055716854 0.0103800325 -0.015456329
000300 04 e2 bf bd 2a f1 6e bd bc 29 f9 bc e8 2d a5 bd
       -0.09369281 -0.05833546 -0.030415408 -0.080653965
000310 46 2d 1a 3d ff e5 9b 3c 12 e1 6c bc d5 b9 b1 bd
       0.037640832 0.01903057 -0.014457958 -0.08678023
000320 54 15 b8 3d ba f2 c6 3d 86 9d 55 3d 50 57 4e 3d
       0.08988443 0.09714265 0.05215218 0.050376236
000330 58 95 b0 bc 03 9c c5 3c ff cf c9 3d a7 38 8b 3c
       -0.021555588 0.024122244 0.09854125 0.016994787
000340 8c 33 3a bd 78 e1 43 3c cf 12 84 bc af 4e 0c bc
       -0.045459315 0.011955611 -0.01612225 -0.0085636815
000350 a2 0f 2f 3d 82 f4 ff bc b6 68 bc 3d 30 1e 69 bd
       0.042739518 -0.03124452 0.091996595 -0.056913555
000360 eb 7e 8a bc 33 25 36 bd 2f ed 2e 3d af a0 a8 3d
       -0.016906222 -0.04446907 0.042706665 0.08233773
000370 40 c9 2b 3d c4 25 55 bc 40 d9 2d 3d f5 63 55 3d
       0.041939974 -0.013009492 0.042443514 0.05209728
000380 54 fb 86 3d 3f e0 11 3c 19 bc ed bd f3 48 07 bc
       0.06590906 0.008903562 -0.116081424 -0.008257139
000390 36 d9 87 bd 5b aa ac bd ed 63 c6 bc 66 25 f9 3b
       -0.066332266 -0.0843093 -0.02421757 0.007603335
0003a0 e7 0c 90 bd 04 4f 6c 3d d4 26 3d 3b cb 2f 2a 3c
       -0.07033711 0.057692543 0.0028862255 0.010387371
0003b0 b2 00 81 bd 92 f0 80 bc 51 19 91 3d 7f d3 a7 3d
       -0.06298961 -0.015739713 0.07084907 0.081946366
0003c0 9a ea 5a 3c 8b 8f 03 3d 23 c7 38 bd 3b 68 72 3c
       0.013361597 0.032119315 -0.045111787 0.014795358
0003d0 dd c4 8f 3d 15 53 71 3d 64 7a 50 bd 98 f7 f2 3b
       0.070199706 0.058917124 -0.05089797 0.0074147694
0003e0 9e 92 95 3d 2a e2 4b 3d 22 a3 f5 3d 66 34 03 3d
       0.07303356 0.049776234 0.11994006 0.032032393
0003f0 a9 60 1e 3d 7a dd 41 3c 77 31 33 bd 64 ad e7 3d
       0.0386664 0.011832589 -0.043748345 0.113123685

bias f4 [16]
000000 7e ed 00 3e 80 03 da 3c 4e 0a 07 3e cc bf 5d 3e
       0.12590596 0.026612997 0.13187525 0.21655196
000010 66 0f 83 3d ca 83 c6 bc de 1e 2a 3e 76 45 b8 39
       0.063994214 -0.024232764 0.16613337 0.00035146967
000020 ea eb 7b 3d 02 91 39 3e 38 28 9d 3c be 86 ab bd
       0.061504282 0.18121722 0.019184217 -0.083753094
000030 11 8e 82 bd 23 14 f4 3d ad 72 73 bd 1e 23 f3 3d
       -0.06374753 0.11917903 -0.059435535 0.118719324

weight f4 [120, 400]
000000 98 b1 85 bc 0a b0 20 bd 02 36 14 3c b6 a8 5c 3d
       -0.016320035 -0.039230384 0.00904608 0.053871833
000010 57 a1 2e 3c f8 38 ac 3c 25 50 76 3c 10 c1 ee bc
       0.010658584 0.021023259 0.015033756 -0.029144794
000020 30 b2 07 3d ea 75 54 bc 85 9a 0b 3d 43 e4 1a 3b
       0.033128917 -0.012967566 0.03408291 0.002363459
000030 9b c3 2e bd 2c 0c 05 bb c9 6d 26 bd 79 2a 8f bc
       -0.042667013 -0.0020301444 -0.040632043 -0.017476307
000040 a8 ac 08 bd 84 72 39 bd 88 12 07 bd 9d 20 0f 3c
       -0.033367783 -0.045275226 -0.032976657 0.008735803
000050 14 98 9b bb 11 7c 8c bc 5d 4a 34 3c 5f 7b 95 3b
       -0.0047483537 -0.017149003 0.011004058 0.004561826
000060 76 f0 b4 3c 30 a6 50 bd 30 2d 8c 3c 4b a5 24 bc
       0.022087317 -0.05093974 0.01711139 -0.010049175
000070 7e 80 3e 3d 45 ae 3d bd ec 90 c2 bc 95 3d 61 3c
       0.04650926 -0.046308775 -0.023750745 0.013747592
000080 a6 4e 5e 3c 39 92 a9 3c 44 d9 99 3c 5d 1f 82 bd
       0.013568556 0.020699607 0.018780358 -0.06353638
000090 9a 11 7f 3c 5a 8b 9f 3d 7c 34 e8 3c 65 89 07 bd
       0.015568161 0.07790251 0.028345339 -0.033090014
0000a0 16 4f fb bc 54 07 0d bc 52 8f 0c 3d b3 92 83 bb
       -0.03067736 -0.008607704 0.03431637 -0.0040152906
0000b0 ba 45 d9 bb 2a 23 c7 bd 97 95 b9 bd f4 00 ca bc
       -0.0066306265 -0.09723504 -0.09061735 -0.024658658
0000c0 72 87 2e bd c2 e4 71 bd d3 eb 15 bd 52 b4 c4 bc
       -0.04260964 -0.05905605 -0.036601853 -0.024011765
0000d0 ce dd 10 bd ae 3e f1 3c 36 5b 5e 3a 56 29 17 bc
       -0.03536778 0.029448833 0.00084822194 -0.009226164
0000e0 33 bd 0c 3c 30 30 27 bb 69 e0 e5 bb 49 17 d7 bc
       0.0085900305 -0.00255109 -0.007015277 -0.02625622
0000f0 43 84 5e 3d b2 74 33 3d 4a 53 de 3b fa 4b d4 3b
       0.054325353 0.04381246 0.006784831 0.0064787837
000100 66 a1 f1 bc 2c 52 84 3c 70 c2 10 3c 5e 72 8e 3d
       -0.029495906 0.016152464 0.00883542 0.069554076
000110 75 e0 4f 3d 05 f2 c5 bc 9e 08 44 3d 18 c9 60 3d
       0.05075117 -0.024163255 0.04785978 0.054879278
000120 49 1b 6f 3d 78 aa 7d bc fe 8a b3 3a ae 8b 6d 38
       0.05837563 -0.015482537 0.0013698039 5.663529e-05
000130 49 d9 8e 3c 57 95 0c 3c 9f 86 ab bb fd 8a 6c bc
       0.017437594 0.008580527 -0.005234554 -0.014437434
000140 22 1b d9 3b f9 db 96 3a 1a c8 39 3d d1 f6 f1 3c
       0.006625549 0.0011509649 0.045356847 0.029536637
000150 26 61 85 3c 79 3d 07 3d cd 7a 23 ba e0 f2 eb bc
       0.016281676 0.03301761 -0.0006236255 -0.028802335
000160 54 01 1a 3a e6 fe 0b 3c f6 9e 3d 3d ec ba 6b ba
       0.00058748317 0.008544659 0.046294175 -0.0008992392
000170 81 d0 66 bd 00 47 f9 bc f4 fc 92 3b ee ac 29 3d
       -0.05635119 -0.030429363 0.004485721 0.041424684
000180 e2 8f 27 3d 7d 96 d7 3c f5 d8 c7 3c cf 53 1c 3d
       0.0409087 0.026316876 0.024395445 0.038165864
000190 f6 cc a2 bc 7b a9 f2 ba 85 3c 15 3c fa 5d cc bc
       -0.019873124 -0.0018513644 0.009108667 -0.024947155
0001a0 b6 6e ee 3c bd 00 d0 3c 53 a7 85 3d 78 86 10 3d
       0.029105525 0.025390977 0.06526055 0.03528449
0001b0 3c cd 82 bc 00 f4 d5 3c 50 dd 72 3c a8 6b d8 b7
       -0.015967004 0.026117325 0.014823273 -2.5799338e-05
0001c0 88 6e f4 3c 09 59 25 bd cf b8 44 3c 4d 9c 04 bc
       0.029837862 -0.040368114 0.012006952 -0.008093906
0001d0 33 b9 16 bb 46 36 6d 3d 76 c7 e1 3b d5 f3 29 bc
       -0.002299857 0.057913087 0.0068902327 -0.0103730755
0001e0 94 d8 e9 bc 8b 4a 41 3d 61 19 c5 b7 7c 06 12 3d
       -0.028545655 0.04719023 -2.3496048e-05 0.035650715
0001f0 ee f4 32 3d 0c 9c 1a 3d 22 af 5d bc 29 8a 1e 3d
       0.043690614 0.037746474 -0.013530524 0.03870598
000200 50 ef c8 bc 14 bb b6 bc bc cb 7a bd 01 0a b9 3c
       -0.024528176 -0.022306003 -0.061229452 0.022587778
000210 64 c1 8f 3d be ae df 3c d4 26 a0 3c 46 7d fe 3a
       0.07019308 0.027305003 0.019549765 0.0019415997
000220 81 3a 4c bd 36 de 6d 3d 76 2f 5e 3d 7e 9d 52 ba
       -0.04986048 0.058073245 0.05424448 -0.00080343324
000230 5a 41 0c bc be 5b 65 bd 03 e9 75 bd 16 32 22 bd
       -0.008560503 -0.055995695 -0.06003667 -0.039598547
000240 e3 0a ff 3c 93 6e 62 bd 83 be 71 bc d4 8b 99 bd
       0.03113312 -0.055281233 -0.014754894 -0.07497373
000250 ba cb 7b bd cb 96 70 bb 52 ef 4f 3c 27 da c1 bc
       -0.061473586 -0.0036710973 0.012691336 -0.023663593
000260 f9 d8 61 3c d4 65 fe bb ab f8 0b 3d d9 53 98 3c
       0.0137846405 -0.0077636037 0.034172695 0.01859467
000270 b9 04 9a 3d 59 b8 cf 3d 55 21 a8 3d a6 ce a2 3a
       0.07520432 0.101425834 0.082094826 0.0012421205
000280 ff 28 6a bd f2 19 8f 3c 4d d6 cc 3d bf 3c b3 3b
       -0.057168003 0.017468426 0.10001812 0.005469888
000290 ce 75 94 bc 12 77 b4 3c 86 54 9e 3c ba 04 b3 3c
       -0.01812258 0.022029433 0.019327413 0.02185284
0002a0 9e ae 3d 3a 72 91 9d bd e8 85 b9 3c db 27 37 bc
       0.0007235798 -0.07693757 0.02264686 -0.011178936
0002b0 80 33 c9 3c ae 3d a0 bd 54 ed fb bd ed 4b 91 3b
       0.02456069 -0.078242645 -0.12301126 0.0044341
0002c0 3a 9f 21 3b 8e 82 82 3c 6b f0 77 bc 4e 65 7c 3c
       0.0024661557 0.015931394 -0.015133004 0.015405012
0002d0 04 c3 4d bd 64 c2 49 3d f4 ca 21 3d 38 a1 2a 3d
       -0.05023481 0.04925765 0.03950019 0.041657656
0002e0 8c 62 ee 3c 89 45 a7 3b 53 42 c7 bb 8e 67 e6 3c
       0.029099725 0.005104725 -0.0060809045 0.02812555
0002f0 ec a3 c6 bc 9c f4 c7 3c c5 55 43 bd 4c f1 57 3d
       -0.024248086 0.024408631 -0.047689218 0.052720353
000300 32 e4 4c 3b 7e 1a cf 3c 0d 48 00 bd b0 93 3f bd
       0.0031263945 0.025281187 -0.031318713 -0.046771705
000310 95 5a 0c 3d 6d 19 13 3d fd 6d 20 bd 3b eb 5b bd
       0.034266073 0.03591292 -0.039167393 -0.05369113
000320 e3 4a 08 3d 31 b9 71 ba 9e 90 19 bc 90 ae 5c 3c
       0.033274543 -0.0009221016 -0.009372858 0.013469353
000330 c1 e9 1d 3c a6 b6 fd 3a 7d 8e 10 bc 99 48 3d bd
       0.009638251 0.0019356802 -0.008823034 -0.046211813
000340 be bd 2c bd 71 d4 78 bd bd 19 b7 3c 86 67 0d bc
       -0.04217314 -0.060749475 0.02235114 -0.008630639
000350 25 eb 95 bc 3b 7e 3c 3d 0c c7 98 3b d8 37 65 3c
       -0.018300602 0.04601882 0.0046624 0.013990365
000360 05 97 6b 3c 29 e4 8b 3d 2e af 58 3d 38 76 58 3c
       0.014379268 0.068306275 0.05290144 0.013211779
000370 64 b7 55 bd 29 ca 33 bb fe 3d 33 3d 54 eb 14 3c
       -0.052176848 -0.002743373 0.043760292 0.00908931
000380 5e 6b 94 bc c2 81 47 bc cb 67 55 bb b3 ca c5 bb
       -0.018117603 -0.012176933 -0.0032563086 -0.0060361265
000390 b9 41 b4 3c 4f 85 60 bc 8c 44 3b bd f3 99 a6 3c
       0.022003995 -0.013703658 -0.04571967 0.02033708
0003a0 a2 99 1e bc 98 09 d8 bb ef e4 b2 bc b0 73 1e 3d
       -0.009680184 -0.0065929405 -0.02183768 0.038684547
0003b0 ee b8 fe 3b ba 9e 18 3c c7 a5 89 bb 61 39 70 3d
       0.00777351 0.009315187 -0.0042006704 0.05864847
0003c0 30 49 82 3c 3a f3 e1 bc 30 31 2c 3d 76 0d 1a 3d
       0.01590404 -0.0275818 0.042039096 0.037610494
0003d0 72 27 12 3d eb 63 67 3d 34 2d 59 3b 6d fd 17 3d
       0.03568215 0.056491774 0.0033138515 0.03710692
0003e0 f6 58 c7 3c 95 bc ba 3d df fb 95 3c 29 7a 30 3d
       0.024334412 0.091180004 0.018308578 0.04308525
0003f0 05 34 90 3d d2 e5 83 bc 9d b9 ae 3c 5b 1c 91 bd
       0.07041172 -0.016100798 0.021328742 -0.070854865

bias f4 [120]
000000 22 82 96 3d c2 08 1c 3b a6 68 d1 3a 9d de 2f 3d
       0.073490396 0.002380893 0.0015976622 0.04293691
000010 3e 13 19 bc a5 b3 87 3c 41 0b 60 bb 0f 50 83 3c
       -0.009342967 0.016565153 -0.0034186395 0.016029386
000020 65 e3 3b 3c 3a f7 55 bc a9 95 ed bc 6b a6 24 3c
       0.011467789 -0.013059432 -0.029002028 0.010049443
000030 f2 cd 97 3d 46 a0 1c 3d 40 35 12 bd a3 12 58 bc
       0.07412328 0.038238786 -0.035695314 -0.013188037
000040 29 21 0c bd a5 07 2b 3d 3e 94 c0 bb 98 65 3c bd
       -0.03421131 0.041755337 -0.005877047 -0.045995325
000050 d9 79 d3 bc e2 3e 13 bd 5e 22 b6 bc 69 b8 cf 3c
       -0.025814937 -0.03594864 -0.022233184 0.025356488
000060 c0 d0 18 3d 3e cb 73 bc 50 7e 46 3d 91 9c 80 3d
       0.037308455 -0.01488 0.048460305 0.06279863
000070 e8 84 37 3d 3e 3e 50 3d d6 7d 2b bc 06 28 1e 3d
       0.044804484 0.05084061 -0.010467013 0.038612388
000080 00 58 df 3c 03 47 51 3b 28 61 9b ba 1b 52 68 bd
       0.027263641 0.0031933195 -0.0011854516 -0.056718927
000090 01 4d 15 bc 72 f5 09 3d a8 b0 22 3d 90 66 12 3d
       -0.009112597 0.03368134 0.039719254 0.035742342
0000a0 94 64 bd bb 6e 48 03 bc c7 09 29 bc 6f 39 78 bc
       -0.005779812 -0.008012874 -0.0103172725 -0.015150412
0000b0 b4 f2 af 3b ec d6 0a 3d 1f 6e 7c bb 58 74 c2 3d
       0.0053695086 0.03389637 -0.0038517786 0.09494847
0000c0 30 e4 01 bc ab 92 c8 bc c6 a4 80 3c ae 77 2c 3d
       -0.007927939 -0.024484 0.01570357 0.042106323
0000d0 51 f0 39 3c f7 c1 93 37 e5 9c 1f bd 5e dc 0b 3c
       0.0113488 1.7614087e-05 -0.038967986 0.008536426
0000e0 fa 20 b3 3c bc 20 83 bc 11 82 34 3d f9 ef 74 bc
       0.02186631 -0.01600682 0.044069353 -0.014949792
0000f0 74 62 ed 3c 26 de 11 3d ed 5b ec bc 2e 38 f2 bc
       0.02897761 0.035612248 -0.028852427 -0.029567804
000100 ee 02 80 ba 2a 9b c4 bc 5b 50 fc 3a 30 e8 03 3c
       -0.0009766498 -0.02399977 0.0019250022 0.008050963
000110 53 87 7e 3d 27 d7 0a bd f2 e8 c9 3a e4 d9 cc 3c
       0.062140774 -0.03389659 0.0015404506 0.025006242
000120 17 7b 07 bc 52 69 83 3d 74 66 3c 3d 9d 87 65 3c
       -0.008269093 0.06416573 0.045996144 0.0140093835
000130 a2 63 8e 3d 38 74 b4 3c b7 c1 fe 3c 0b a8 9b 3c
       0.06952597 0.022028074 0.03109823 0.019001028
000140 d2 8a 4a bd 5e 87 0f 3d 3f cd 53 3d 53 d1 8e 3b
       -0.049448796 0.035041206 0.05170941 0.0043584495
000150 0e f5 3c 3b 26 8e 37 bd 9a 5d 67 bb a8 4a 19 bc
       0.0028832587 -0.044813298 -0.0035303594 -0.009356178
000160 0e 2c 7f 3d 8a b1 8a 3d d5 e8 34 3d f7 86 6d 3a
       0.062297873 0.06772144 0.04416736 0.0009060944
000170 b8 c4 0e 3d d8 eb 63 39 01 d0 a6 bc 26 44 95 bc
       0.034855574 0.00021736266 -0.020362856 -0.018220972
000180 05 69 c6 bb c7 26 29 bd b0 04 75 3d 05 c5 17 bc
       -0.006055 -0.041296747 0.059818923 -0.009263282
000190 42 57 0c bd cd 78 ee 3c d0 4f 29 3d 81 05 1b 3b
       -0.034262903 0.029110337 0.04133588 0.0023654404
0001a0 51 6e 3c 3c 5f f3 fd 3c be a4 64 3d da 02 cc 3c
       0.011500911 0.030999837 0.055821173 0.024903703
0001b0 ce e2 ce 3b 17 bf 87 3d 6a 1b cc bc 52 a0 0d bd
       0.0063136583 0.06628244 -0.024915416 -0.03457672
0001c0 69 d6 93 bc a1 6d 0a 3c e9 bc 95 3c 0f a9 16 3c
       -0.018046575 0.008448989 0.018278556 0.00919558
0001d0 fe d2 f5 3c ce 57 d5 3b 39 8c d5 bc 12 2c d8 3c
       0.030007835 0.0065107113 -0.02606784 0.026388202

weight f4 [84, 120]
000000 f0 fa 85 3c b0 1e e2 3c d8 da 42 3c e4 85 20 bd
       0.016355008 0.027602524 0.011892997 -0.039190188
000010 4c 94 67 3d 2b 9f ff bc 4f 45 25 3d 54 5b 03 3c
       0.05653791 -0.031203827 0.0403493 0.00801738
000020 3a 45 65 3e 95 8a 09 3e e5 be 06 3e b0 cf b1 3d
       0.22389689 0.13431771 0.13158758 0.08682191
000030 08 f0 f0 bc de d0 6b bd b5 6b 1c bc f3 db 6e bc
       -0.02941133 -0.05757224 -0.009547164 -0.014578807
000040 35 79 86 3d ec c1 7f 3d ab 9f 8a 3c a9 eb c8 bd
       0.06566087 0.062440798 0.016921839 -0.098105736
000050 4a f9 04 bd db e9 27 bc 51 70 89 3d 9a a3 74 bd
       -0.032464303 -0.010248627 0.06710876 -0.059726335
000060 4c e4 b3 bc b5 de 30 bc 5e d8 85 bd 33 62 14 3e
       -0.021959446 -0.010795285 -0.065354094 0.14490585
000070 7e ef 54 3c 34 ac 86 3d c2 07 cd bd ec f5 0e bd
       0.0129965525 0.06575814 -0.10011245 -0.034902498
000080 2d 70 a8 bb 0c f6 7a 3d 08 97 a7 3d dd d1 81 bd
       -0.0051403255 0.061269805 0.08183104 -0.06338856
000090 fd 05 80 3d a5 c9 8b bd 45 1a 82 3d 90 8b 86 3c
       0.06251142 -0.0682557 0.06352667 0.01642397
0000a0 96 23 ff 3c 0c 11 aa bd 17 35 10 3c 27 e8 87 3d
       0.031144898 -0.08304033 0.00880172 0.066360764
0000b0 24 32 14 bd 50 7a 44 bd de 94 73 3c b6 61 47 3b
       -0.03618063 -0.04796821 0.014867036 0.003042323
0000c0 ea 8e 75 3d 01 d5 19 be 37 1f 17 3d d4 aa 30 bd
       0.059950747 -0.15022661 0.036895003 -0.043131664
0000d0 62 e7 47 bc 81 0e 2c bd 60 1c 22 bd fb 98 ae 3d
       -0.012201162 -0.04200602 -0.03957784 0.085252725
0000e0 93 e4 8f bd 3e 3a 93 3d 96 18 b3 3c db 31 b6 3d
       -0.07026019 0.07188843 0.02186231 0.08896228
0000f0 f2 dd d9 3c 68 1d cb 3b 46 79 46 bd a9 62 92 3d
       0.02659509 0.006198574 -0.0484555 0.07147724
000100 3e f6 e6 bd fc 45 3a bd b8 b3 ea 3b e7 7b 20 3e
       -0.11277436 -0.0454769 0.0071625374 0.15672265
000110 2a 69 80 bd 5b 68 15 3c 42 66 7e ba a3 b9 42 3d
       -0.062700585 0.009119119 -0.00097045687 0.04754032
000120 10 7e 8e bd 50 80 32 bd e6 d7 4a 3d 08 c2 b3 3b
       -0.06957638 -0.0435794 0.049522303 0.005485777
000130 36 6f 50 3c 53 aa 8b bc 28 ec 4a 3d 69 e0 25 bd
       0.012721827 -0.01704899 0.049541622 -0.040497217
000140 f0 d6 cd bd c8 f7 95 bd f2 d9 48 bd fa b3 38 bd
       -0.10050762 -0.07322651 -0.049035974 -0.045093514
000150 3a 21 c8 bd a4 14 1d bd 94 80 b6 bc 27 fd a7 bd
       -0.097719625 -0.038349763 -0.022278108 -0.08202582
000160 0d 95 a7 bd 0c e1 7f bd ec 5b 90 3d 35 9e ec bc
       -0.08182726 -0.06247048 0.07048783 -0.028884033
000170 7b e0 2a be 8c 23 cb bc ae 40 0c 3e 51 2b 32 bc
       -0.16687195 -0.024797224 0.13696548 -0.010874585
000180 b4 ee 64 bb a4 b7 e4 bb 90 58 8a bd 20 bb 63 3d
       -0.0034932317 -0.0069798995 -0.06755173 0.05559838
000190 13 d1 01 3e 80 bc fe 3d af 14 97 bd 79 63 9f bb
       0.12677412 0.12438297 -0.07376992 -0.004864153
0001a0 36 21 91 bd 3e 06 cc bd d1 a0 4b 3d 8e 6b 65 3d
       -0.070864126 -0.09962128 0.049713913 0.056010775
0001b0 12 87 a9 bd 2b 90 09 be ec 78 90 3b cb 15 13 bd
       -0.08277716 -0.13433902 0.0044089463 -0.035909455
0001c0 9e 90 e0 3c c0 b7 a0 bc be 9a c8 3a fc 25 4c bd
       0.027412709 -0.019618869 0.0015304906 -0.049840912
0001d0 69 ed 39 3d fe cf 3f 3d 49 91 aa 3d c3 b3 42 bd
       0.045392428 0.046829216 0.08328492 -0.047534715
0001e0 3c 9c ec bd 2c ef 5b bd 0b 32 86 b8 5a b9 cf 3c
       -0.11553237 -0.05369489 -6.398939e-05 0.025356937
0001f0 c0 cf a0 3d 10 c8 ba ba 27 ca 41 3d 2a 18 70 3c
       0.07852125 -0.0014250297 0.047311928 0.014654199
000200 4e 6b ed bc 59 29 a8 3d 82 70 0b bd c1 8a 82 bd
       -0.02898183 0.082110114 -0.034042843 -0.063741215
000210 bc f1 1b 3c 54 20 d0 38 d1 d6 82 3d dc d4 83 3d
       0.009518083 9.9242345e-05 0.06388629 0.06437084
000220 02 40 b2 bd 8a 13 4e 3c e3 f0 39 bd 64 22 06 bd
       -0.08703615 0.012577901 -0.045395743 -0.03274764
000230 dd 1b f1 3d 20 53 57 3a ba 99 df 3b dd e8 52 bd
       0.117728926 0.0008213986 0.0068237456 -0.051491607
000240 e6 fd 75 3d 05 a5 47 3c 9a 19 a9 bd d9 d3 4c 3b
       0.06005659 0.01218534 -0.08256836 0.00312542
000250 6e 3d ad bd 97 de e0 ba 65 87 7d bd 11 ca 06 bd
       -0.084589824 -0.0017156181 -0.0618967 -0.03290755
000260 41 8f a5 bd 38 d2 7f bd 08 a5 18 bd 33 13 15 bd
       -0.08083964 -0.06245634 -0.03726676 -0.036395263
000270 eb 8b 80 3d d2 6e 6d bd 14 d5 cb bc 79 f1 d9 bc
       0.06276687 -0.057967015 -0.024881877 -0.026604401
000280 73 05 21 bd a6 a9 84 bd e0 4b 72 bc 44 c3 4d 3d
       -0.039311837 -0.0647767 -0.014788598 0.050235048
000290 d8 f2 06 3c 43 04 1b 3d 14 68 4c 3d c4 49 29 bd
       0.008236609 0.03784586 0.049903944 -0.041330114
0002a0 5c ba 10 bd 52 ad 5e 3d 3d fa f5 bc 74 d4 68 3d
       -0.035333976 0.05436451 -0.03002655 0.056843236
0002b0 62 08 14 bd 90 ee a7 bc 0a 27 c0 bd 31 36 5d bd
       -0.036140807 -0.020499498 -0.09382446 -0.05400676
0002c0 4e b1 eb 3b 61 f9 69 bd b2 d0 02 3d bb d5 94 3d
       0.007192767 -0.057122592 0.03193731 0.07267328
0002d0 4d f4 9f bd 67 04 ff 3c 4f a6 60 3d b3 d0 8b bd
       -0.078102686 0.031130029 0.054846104 -0.068269156
0002e0 d0 5f 9e 3c 9d ad 12 bd a8 b7 78 bc 90 24 07 3d
       0.019332796 -0.0358101 -0.015180506 0.032993853
0002f0 50 4e 54 3d b2 fa b4 bd 72 bc 00 3d 52 43 56 bb
       0.051832497 -0.08836879 0.031429715 -0.0032693935
000300 72 ee 42 bd 08 d7 43 3d f4 df 9a ba 54 66 23 bc
       -0.04759068 0.04781249 -0.0011816011 -0.009973127
000310 ce de 53 bd 7a e7 4b 3d 94 3a 20 3d 32 13 92 bc
       -0.051726155 0.0497813 0.039118364 -0.017831419
000320 2c 1e aa 3c f6 00 a4 3c 4e ae f5 bc 91 c9 11 3c
       0.02076634 0.02001999 -0.029990342 0.008898155
000330 39 dd 9b bd 71 f4 70 3d 77 23 13 3d 60 dd 4e bd
       -0.07610554 0.058826867 0.035922494 -0.05050409
000340 2b 5e bf 3c 02 64 12 3c 86 81 ec bd 8a 15 87 bd
       0.023360332 0.0089349765 -0.11548142 -0.06595905
000350 f8 5e a4 3d 63 c2 0e 3d d4 0e 6a bd 0f 7f 88 3d
       0.08025926 0.03485335 -0.057143047 0.066648595
000360 b6 2f 8c 3d 46 35 02 bd 7f 09 5c 3d 36 f7 a3 bd
       0.06845038 -0.031789087 0.053719994 -0.08006136
000370 a4 d0 61 3d 13 cf ab bb 05 b4 ee bd 2d 10 a8 3c
       0.055130616 -0.005243191 -0.1165543 0.020515526
000380 a3 7d 33 bd 40 9b be 3d 6d fb 5a bd a9 c3 cd 3d
       -0.04382099 0.09306955 -0.053462435 0.10047085
000390 2c ad 6a 3d 24 3e 60 3d 8b a1 81 3c e4 11 06 3d
       0.057294056 0.054746762 0.0158241 0.032731906
0003a0 58 fc 84 bc 48 94 aa 3d 69 eb ab bd 04 b3 bd 3d
       -0.016233608 0.08329064 -0.0839451 0.0926266
0003b0 49 d6 a6 bd 64 ed 24 3d 3e 88 2c 3c b5 ad 59 3d
       -0.081463404 0.040265456 0.01053053 0.053144176
0003c0 b2 e4 03 3d 7a 6e 33 3d ba 27 ac bd 58 f5 7d 3d
       0.032200523 0.04380653 -0.08406015 0.062001556
0003d0 df 74 93 bd 30 bd 02 bd 32 e3 12 3d 68 aa ad 3b
       -0.07200026 -0.031918705 0.0358612 0.005299855
0003e0 ac 99 b0 3d 17 9e a9 3d 4d 9d d6 bd ea d4 c1 3d
       0.086230606 0.08282106 -0.104792215 0.09464438
0003f0 59 f2 9c bd 46 ef c8 3c 23 de 9b bc 9a 54 74 3d
       -0.07663412 0.024528157 -0.019026821 0.059650995

bias f4 [84]
000000 a4 84 08 3e 40 91 2b bd af 57 90 bc a0 16 c2 3d
       0.13331848 -0.041886568 -0.017619936 0.094769716
000010 c5 b5 0c 3d 7b e5 a2 3c e7 65 0a bd 2c 97 89 bd
       0.034353036 0.019884815 -0.033788588 -0.06718287
000020 47 a6 5e 3c 04 0c 12 3e 1a 83 31 bc 3d 8d d6 3d
       0.013589448 0.14262396 -0.01083448 0.10476158
000030 71 08 89 bd 54 2a 34 3e e6 04 3b 3d af 6f a2 3c
       -0.06691063 0.17594272 0.04565897 0.019828646
000040 a5 db 40 3e 78 f0 57 bd 5e 10 95 bd 90 10 8f bd
       0.18833788 -0.052719563 -0.072785124 -0.06985581
000050 4d 25 f7 3c 8b ed a2 3d ae 25 33 bc ce df db 3d
       0.030169154 0.07955464 -0.0109342765 0.10736047
000060 52 ce 60 3d cc a8 f3 3c 65 f1 2f 3e a5 e6 c4 3d
       0.054884262 0.029743575 0.17181928 0.096143045
000070 17 f3 0e 3e f5 7b ea 3d 31 10 d6 3c 28 73 3c bd
       0.13959919 0.11449424 0.026130768 -0.04600826
000080 7c e1 82 3d 4e 0c 48 3a c6 4d b2 3a e8 e3 d6 bb
       0.06390664 0.0007631228 0.00136035 -0.0065579303
000090 c7 03 63 3d d7 ec 2a bd ea 70 c3 3d 47 9f 85 bd
       0.055423524 -0.041729774 0.09543021 -0.0652452
0000a0 40 47 3e 3e 4f 52 aa 3d ff 64 00 3e 00 a2 49 3d
       0.18581867 0.0831648 0.12538527 0.04922676
0000b0 a6 1d e3 bc b0 2a 29 3e ae 86 fe 3c a9 78 17 bc
       -0.027724098 0.1652019 0.03107008 -0.009245076
0000c0 f8 2b 07 3d 10 c6 2b bd 74 ea 9c bc 43 a9 d2 bc
       0.033000916 -0.041936934 -0.019154765 -0.025715476
0000d0 06 59 0a 3e 63 09 82 bd a7 e5 1b bd 94 3b 64 3d
       0.13510522 -0.063494466 -0.03806081 0.05572088
0000e0 6d 04 6d 3e 40 d2 0f 3d 92 5e f5 3c e2 16 36 3e
       0.2314622 0.03511262 0.029952321 0.17782167
0000f0 66 31 20 bd 4c ff 47 bd e5 32 88 3c 67 bb 9e 3d
       -0.03910961 -0.048827454 0.01662583 0.07750588
000100 6a 1b 34 3e 15 f7 1c bd f3 61 8d 3d ee d4 6f 3d
       0.17588583 -0.038321573 0.06903448 0.058552675
000110 54 a1 dd 3c fc 13 01 3d ee 4a 1f bd 3d f6 b3 3c
       0.027054466 0.0315132 -0.038889818 0.021968001
000120 1f 67 cf 3d df 48 1f 3d ae b9 dd 3d 80 7e 50 3d
       0.10127091 0.038887855 0.10826431 0.05090189
000130 40 cc 0a bc 22 4d 97 3d 61 36 d4 3c 2d df 39 bd
       -0.008471549 0.07387759 0.025904836 -0.045378853
000140 c4 ae 06 3e f0 a5 e5 3d de b6 94 3d b3 68 a5 3d
       0.13152605 0.11213291 0.07261442 0.080766104

weight f4 [10, 84]
000000 f9 80 a9 be 63 d5 40 3c 46 06 00 3e 5d c4 e3 3d
       -0.3310621 0.011769625 0.12502393 0.11121438
000010 21 2d 7d bd e2 06 b5 3e a2 2c 55 bd 38 a0 4e 3e
       -0.061810616 0.35356814 -0.05204452 0.20178306
000020 dd 34 8f 3d 46 e3 f7 bd ec 44 d8 3d 5e 50 23 be
       0.06992505 -0.12103896 0.10560021 -0.15948626
000030 b9 fe f4 bc 78 98 c1 3e ca c6 09 3b 6a 59 e4 bc
       -0.029906617 0.37811637 0.0021023029 -0.027874667
000040 c4 29 0e bf 08 a3 1c bd 08 b7 ea bd ca 9b 7e 3d
       -0.5553248 -0.038241416 -0.11460692 0.06216029
000050 45 b4 41 3d b1 28 88 be 77 c9 8a 3c e3 d9 3e 3e
       0.04729106 -0.26593545 0.016941769 0.18637805
000060 74 e6 79 be f8 f9 2c 3c f8 89 e4 be 22 1f d0 bc
       -0.24404317 0.010557644 -0.44636512 -0.02540547
000070 01 af 5d be a0 70 77 be a7 19 1f 3e 7b d1 c5 3d
       -0.2164879 -0.24164057 0.1553713 0.09659096
000080 ca a9 d9 39 be 46 94 bc 95 a7 63 be 5d b9 73 3e
       0.00041515968 -0.018100139 -0.22231896 0.23801179
000090 6f ce c9 3d 46 96 8b 3b 6a d3 b5 3e c4 79 09 bc
       0.09853827 0.0042598573 0.3551286 -0.008390848
0000a0 79 d7 9f be d2 28 c5 3d e4 d4 1d be b6 6d 9e 3d
       -0.3121908 0.096269265 -0.15413243 0.077357695
0000b0 50 cb ad bc 97 ba 1b 3e c7 8e 8e 3c 94 b4 b8 3d
       -0.021215111 0.15207897 0.017402066 0.090188175
0000c0 63 95 cd bd 03 4c f2 3d d6 c6 27 3e 85 a3 20 bc
       -0.10038259 0.11830904 0.16384444 -0.009804611
0000d0 f4 de 9f bd c7 ab 06 3d 7a c6 6f 3e 3e 99 75 3e
       -0.07806197 0.032878663 0.23415557 0.23984239
0000e0 d2 c5 2e bd b8 f2 c1 3d f4 1b fa 3d 5e 2a 79 be
       -0.042669125 0.09470123 0.12212363 -0.24332568
0000f0 32 ab ff bd bc e6 2e bb 75 51 5e be 8e 13 53 be
       -0.12483825 -0.0026687821 -0.21710761 -0.20612928
000100 ca ea f2 bc ea 0b e0 3d 8a 2f 06 3e 26 e0 14 be
       -0.029652972 0.109397724 0.13104072 -0.14538631
000110 f8 18 79 3e 17 70 45 3e ed 5b 7d 3c cc 41 20 3d
       0.24325931 0.1928104 0.015463811 0.03912525
000120 96 6a 16 be bd 51 0c bd b0 60 4c be 26 bb ce bc
       -0.14689097 -0.03425764 -0.19958758 -0.025235724
000130 d5 a4 fb 3c 87 de 70 bb 2c e1 16 3d bc 7b 64 3d
       0.030718246 -0.003675373 0.036835834 0.055782065
000140 56 66 ca bd 71 53 3e be de c8 3c 3e df 80 6e 3e
       -0.098828 -0.18586518 0.18436 0.23291348
000150 8a 79 46 bb 28 91 c3 3d e1 0e 83 be 95 bd 4c be
       -0.0030284845 0.09549171 -0.2559729 -0.19994195
000160 ab a1 43 3d 52 af b5 3e 5a b3 4d 3d 1e 3e 43 bd
       0.0477616 0.3548532 0.05021987 -0.04766666
000170 27 1d 24 bc e9 07 4d 3e 5e 0a 65 3e fa 3b 0d 3d
       -0.010016716 0.20022549 0.22367236 0.034481026
000180 e7 9a 2a bc 99 33 81 be e2 35 9f be b1 3e 80 bc
       -0.010412908 -0.25234678 -0.31095797 -0.015654894
000190 5d 42 ab 3e 98 99 9f 3d 50 ac 24 3e 31 b7 d6 3c
       0.3344907 0.077929676 0.16081357 0.0262104
0001a0 e4 7f df 3d 8e 8b a2 3c d8 78 89 bd 8f ff 9b 3d
       0.10913065 0.019841935 -0.06712502 0.07617103
0001b0 54 f6 46 3e 68 af 1f 3c be 6c 48 be 85 a3 0b bc
       0.19429904 0.00974641 -0.19572732 -0.008522873
0001c0 d6 d2 9d be 2a 18 89 bd b8 51 14 3e bc 06 0d bd
       -0.30824918 -0.06694062 0.14484298 -0.03443025
0001d0 34 ea a5 be 5e e9 d2 3c 3e 07 86 be 90 ec 92 3e
       -0.32405245 0.025746044 -0.261774 0.28696108
0001e0 02 01 2c bd 53 3b 98 3d 1a 6d 1a be a2 5d 38 3e
       -0.04199315 0.0743319 -0.15080681 0.18004468
0001f0 e0 57 c9 be c6 3c 1f be b8 ab c2 3e de 3b 7c be
       -0.39324856 -0.15550527 0.38021636 -0.24632213
000200 36 34 e3 bd c0 c0 6c 3e ce 1a f8 bd 0d e0 de bd
       -0.11093943 0.23120403 -0.121144876 -0.10882578
000210 1c ef 07 3e 21 79 6a bd 0a 36 1b 3e 14 22 7e 3d
       0.13274807 -0.057244424 0.15157333 0.06204422
000220 27 7a 99 be 2d a0 c0 3d af b4 bb 3d fc 26 5b 3e
       -0.29976007 0.09405551 0.09165322 0.2140159
000230 7a f1 bd 3e 4d 65 09 3d 8a 4e d1 bd 1d b2 9f be
       0.37098294 0.033543874 -0.10220058 -0.31190577
000240 48 e9 75 3d 3b 12 80 bd b0 f7 12 be 44 f5 06 be
       0.060036927 -0.06253477 -0.14352298 -0.13179499
000250 07 a7 13 3d ce 37 ac bd 70 7c cd 3d ea 34 5a bd
       0.03604796 -0.084090814 0.100335 -0.05327312
000260 cb 43 55 be 82 ec 3e 3e c4 09 ee bc 24 cc 49 3e
       -0.20826642 0.18644908 -0.029057391 0.1970678
000270 44 0b 95 bd 57 c0 be 3d f3 82 0d be 42 69 f2 3c
       -0.07277539 0.0931403 -0.13819484 0.029591206
000280 21 5b 58 be 6c ef 19 3e b4 f4 45 3e 63 2a 43 bd
       -0.21128513 0.15032738 0.19331628 -0.047647845
000290 c9 2a a7 bd 8a 88 63 3d 23 4d fc bd 3f 24 1c 3e
       -0.081624575 0.055550136 -0.123194 0.15248202
0002a0 25 c5 f9 bb c4 13 1d bc 6e 09 81 be 5d 9e 3a be
       -0.0076223784 -0.009587232 -0.25202507 -0.18224473
0002b0 fb a9 96 bd f9 f3 d5 3e c2 eb 99 bd 31 84 d3 3d
       -0.0735664 0.417877 -0.0751567 0.10327948
0002c0 88 61 c0 3d 92 10 58 3e c4 a3 19 be 1b cc 08 3e
       0.093936026 0.21100071 -0.15003878 0.1335911
0002d0 cc 6f 38 bd 08 a2 8c be 3a ce 73 be 80 6e 0f bd
       -0.045028493 -0.2746737 -0.23809138 -0.03501749
0002e0 f1 6d 93 3e b8 5b 96 3d 59 7d 14 bd aa c7 0d bd
       0.28794816 0.07341713 -0.036252353 -0.034614243
0002f0 62 81 26 be 35 6c 21 bd 83 03 cf 3d 26 60 71 3e
       -0.16260293 -0.039409835 0.10108092 0.23571834
000300 9a 18 3c 3e 15 1e 91 3d 04 c5 3f be 8c 77 d3 3d
       0.1836876 0.07085816 -0.18727499 0.10325536
000310 12 d6 f1 bd 98 37 78 be 1c 64 dc bd b3 ef aa bd
       -0.11808409 -0.24239957 -0.10761282 -0.083465
000320 d1 be 9c 3e 60 0e c8 bd d2 f7 17 3d e0 cf 95 be
       0.3061433 -0.09768367 0.037101574 -0.2926016
000330 1c c3 52 be b5 ef 2f bd 1a cc 77 be 9e 3b b6 3c
       -0.20582241 -0.04295321 -0.24198952 0.022245225
000340 e2 a4 86 be dd e4 4b be 96 56 c2 3e 54 a7 8c be
       -0.2629767 -0.19911523 0.37956685 -0.2747141
000350 17 aa b8 3d 13 c0 43 3e 7e c8 a8 3c 6e a3 ba 3d
       0.09016817 0.19116239 0.020603415 0.09113203
000360 8c 07 5c be 5b 92 c8 bd 17 84 2b 3c c5 8a a4 3d
       -0.21487254 -0.0979354 0.010468504 0.08034281
000370 d3 d0 5e 3e 5b a7 92 3d b1 ba b5 3d 9a 53 8d bd
       0.21759348 0.07160827 0.08873499 -0.06900711
000380 2c be bf 3e e4 25 80 3d 56 a9 f2 bd b5 fc 94 be
       0.37449777 0.06257227 -0.118487045 -0.2909905
000390 a9 9e 42 be 0d 49 0a 3d ec 33 44 be 96 ea 20 bd
       -0.19005837 0.033761073 -0.19160432 -0.03928622
0003a0 4b 46 a7 3e 26 8b 57 3c ae 30 8a be 7a 5c 1a be
       0.32670817 0.013155734 -0.26990265 -0.1507434
0003b0 2f 88 57 be fb 37 26 3e ff 73 df 3c b4 cb 80 be
       -0.21048044 0.16232292 0.027276991 -0.25155413
0003c0 55 02 07 be 7a 29 a8 3c 3c 39 33 3e b1 e0 c5 bd
       -0.13184483 0.02052759 0.17502302 -0.09661997
0003d0 1e 89 a4 bd 99 09 41 be d5 ad 09 3e eb 66 af bd
       -0.080339655 -0.18851317 0.13445218 -0.08564552
0003e0 5e 89 39 be 7b cf c1 bc 5a d3 3c 3e 91 32 e2 3d
       -0.18118808 -0.023658505 0.18439999 0.11044801
0003f0 5e a7 aa be 56 d5 b5 3d 1d 2c d4 3d e8 ac 74 be
       -0.33330816 0.08878581 0.103599764 -0.23894083

bias f4 [10]
000000 c8 9c 12 3e b8 59 85 bd 36 fe 37 3e 88 72 49 3e
       0.1431762 -0.06511253 0.17968068 0.19672596
000010 77 b3 05 be dc 92 33 be a1 6e a2 3d 2f ec 81 3e
       -0.13056742 -0.17536491 0.07931257 0.25375506
000020 56 42 9d bd 25 d8 78 be
       -0.07678668 -0.24301203
